_________________________________________________________________
 Layer (type)                Output Shape              Param #   
=================================================================
 conv2d (Conv2D)             (None, 30, 30, 32)        320

 batch_normalization (BatchN  (None, 30, 30, 32)       128
 ormalization)

 max_pooling2d (MaxPooling2D  (None, 15, 15, 32)       0
 )

 conv2d_1 (Conv2D)           (None, 13, 13, 32)        9248

 batch_normalization_1 (Batc  (None, 13, 13, 32)       128
 hNormalization)

 max_pooling2d_1 (MaxPooling  (None, 7, 7, 32)         0
 2D)

 conv2d_2 (Conv2D)           (None, 5, 5, 64)          18496

 batch_normalization_2 (Batc  (None, 5, 5, 64)         256
 hNormalization)

 max_pooling2d_2 (MaxPooling  (None, 3, 3, 64)         0
 2D)

 conv2d_3 (Conv2D)           (None, 1, 1, 64)          36928
=================================================================
Total params: 86,094
Trainable params: 85,326
Non-trainable params: 768
_________________________________________________________________
None
Epoch 1/200
2444/2444 [==============================] - 833s 341ms/step - loss: 0.8069 - accuracy: 0.7756 - val_loss: 0.1677 - val_accuracy: 0.9499
Epoch 2/200
2444/2444 [==============================] - 63s 26ms/step - loss: 0.2902 - accuracy: 0.9109 - val_loss: 0.1354 - val_accuracy: 0.9578
…
